…
2020-05-18 22:14:58,146 INFO - Successfully installed pillow-5.4.1
2020-05-18 22:14:58,341 INFO - You are using pip version 10.0.1, however version 20.1 is available.
2020-05-18 22:14:58,341 INFO - You should consider upgrading via the 'pip install --upgrade pip' command.
2020-05-18 22:14:58,407 INFO - Starting services.
2020-05-18 22:15:00,242 INFO - Namespace(b1=0.5, b2=0.999, batch_size=64, channels=1, img_size=64, latent_dim=100, lr=0.0002, n_cpu=8, n_epochs=1, sample_interval=400, workers=2)
2020-05-18 22:15:03,288 INFO - Generator(
2020-05-18 22:15:03,288 INFO - (main): Sequential(
2020-05-18 22:15:03,288 INFO - (0): ConvTranspose2d(100, 512, kernel_size=(4, 4), stride=(1, 1), bias=False)
2020-05-18 22:15:03,288 INFO - (1): BatchNorm2d(512, eps=1e-05, momentum=0.1, affine=True, track_running_stats=True)
2020-05-18 22:15:03,289 INFO - (2): ReLU(inplace)
2020-05-18 22:15:03,289 INFO - (3): ConvTranspose2d(512, 256, kernel_size=(4, 4), stride=(2, 2), padding=(1, 1), bias=False)
2020-05-18 22:15:03,289 INFO - (4): BatchNorm2d(256, eps=1e-05, momentum=0.1, affine=True, track_running_stats=True)
2020-05-18 22:15:03,289 INFO - (5): ReLU(inplace)
2020-05-18 22:15:03,290 INFO - (6): ConvTranspose2d(256, 128, kernel_size=(4, 4), stride=(2, 2), padding=(1, 1), bias=False)
2020-05-18 22:15:03,290 INFO - (7): BatchNorm2d(128, eps=1e-05, momentum=0.1, affine=True, track_running_stats=True)
2020-05-18 22:15:03,290 INFO - (8): ReLU(inplace)
2020-05-18 22:15:03,290 INFO - (9): ConvTranspose2d(128, 64, kernel_size=(4, 4), stride=(2, 2), padding=(1, 1), bias=False)
2020-05-18 22:15:03,290 INFO - (10): BatchNorm2d(64, eps=1e-05, momentum=0.1, affine=True, track_running_stats=True)
2020-05-18 22:15:03,290 INFO - (11): ReLU(inplace)
2020-05-18 22:15:03,291 INFO - (12): ConvTranspose2d(64, 3, kernel_size=(4, 4), stride=(2, 2), padding=(1, 1), bias=False)
2020-05-18 22:15:03,291 INFO - (13): Tanh()
2020-05-18 22:15:03,291 INFO - )
2020-05-18 22:15:03,291 INFO - )
2020-05-18 22:15:03,323 INFO - Discriminator(
2020-05-18 22:15:03,324 INFO - (main): Sequential(
2020-05-18 22:15:03,324 INFO - (0): Conv2d(3, 64, kernel_size=(4, 4), stride=(2, 2), padding=(1, 1), bias=False)
2020-05-18 22:15:03,324 INFO - (1): LeakyReLU(negative_slope=0.2, inplace)
2020-05-18 22:15:03,324 INFO - (2): Conv2d(64, 128, kernel_size=(4, 4), stride=(2, 2), padding=(1, 1), bias=False)
2020-05-18 22:15:03,325 INFO - (3): BatchNorm2d(128, eps=1e-05, momentum=0.1, affine=True, track_running_stats=True)
2020-05-18 22:15:03,325 INFO - (4): LeakyReLU(negative_slope=0.2, inplace)
2020-05-18 22:15:03,325 INFO - (5): Conv2d(128, 256, kernel_size=(4, 4), stride=(2, 2), padding=(1, 1), bias=False)
2020-05-18 22:15:03,325 INFO - (6): BatchNorm2d(256, eps=1e-05, momentum=0.1, affine=True, track_running_stats=True)
2020-05-18 22:15:03,325 INFO - (7): LeakyReLU(negative_slope=0.2, inplace)
2020-05-18 22:15:03,325 INFO - (8): Conv2d(256, 512, kernel_size=(4, 4), stride=(2, 2), padding=(1, 1), bias=False)
2020-05-18 22:15:03,325 INFO - (9): BatchNorm2d(512, eps=1e-05, momentum=0.1, affine=True, track_running_stats=True)
2020-05-18 22:15:03,326 INFO - (10): LeakyReLU(negative_slope=0.2, inplace)
2020-05-18 22:15:03,326 INFO - (11): Conv2d(512, 1, kernel_size=(4, 4), stride=(1, 1), bias=False)
2020-05-18 22:15:03,326 INFO - (12): Sigmoid()
2020-05-18 22:15:03,326 INFO - )
2020-05-18 22:15:03,326 INFO - )
2020-05-18 22:15:03,326 INFO - Starting Training Loop...
2020-05-18 22:15:03,418 INFO - size of data: torch.Size([1, 3, 64, 64])
2020-05-18 22:15:03,419 INFO - b size: 1
2020-05-18 22:15:03,419 INFO - size of label: torch.Size([1])
2020-05-18 22:15:03,419 INFO - type of label: <class 'torch.Tensor'>
…
